{
  "tool": "circt",
  "type": "pull_request",
  "issue_number": 3967,
  "issue_url": "https://github.com/llvm/circt/pull/3967",
  "title": "[AffineToPipeline] Unroll loops",
  "body": "# Summary: MWE of loop unrolling + naive store-load forwarding in order to lower nested loops to pipeline dialect.\r\n\r\n## Details: \r\n\r\nThis is a really dirty sketch of the hoops I had to jump through in order to unroll this\r\n\r\n```mlir\r\nfunc.func @forward(%arg0: memref<1x2xf32>) -> memref<1x2xf32> {\r\n  %3 = memref.alloca() : memref<2x2xf32>\r\n  %4 = memref.alloca() : memref<1x2xf32>\r\n  affine.for %arg1 = 0 to 1 {\r\n    affine.for %arg2 = 0 to 2 {\r\n      affine.for %arg3 = 0 to 2 {\r\n        %5 = affine.load %arg0[%arg1, %arg3] : memref<1x2xf32>\r\n        %6 = affine.load %3[%arg3, %arg2] : memref<2x2xf32>\r\n        %7 = affine.load %4[%arg1, %arg2] : memref<1x2xf32>\r\n        %8 = arith.mulf %5, %6 : f32\r\n        %9 = arith.addf %7, %8 : f32\r\n        affine.store %9, %4[%arg1, %arg2] : memref<1x2xf32>\r\n      }\r\n    }\r\n  }\r\n  return %4 : memref<1x2xf32>\r\n}\r\n```\r\n\r\nand produce this\r\n\r\n```mlir\r\nmodule {\r\n  func.func @matvecmul(%arg0: memref<1x2xi32>) -> memref<1x2xi32> {\r\n    %c0 = arith.constant 0 : index\r\n    %c1 = arith.constant 1 : index\r\n    %0 = memref.alloca() : memref<2x2xi32>\r\n    %1 = memref.alloca() : memref<1x2xi32>\r\n    %c0_0 = arith.constant 0 : index\r\n    %c1_1 = arith.constant 1 : index\r\n    %c1_2 = arith.constant 1 : index\r\n    pipeline.while II =  1 trip_count =  1 iter_args(%arg1 = %c0_0) : (index) -> () {\r\n      %2 = arith.cmpi ult, %arg1, %c1_1 : index\r\n      pipeline.register %2 : i1\r\n    } do {\r\n      %2:9 = pipeline.while.stage start = 0 {\r\n        %5 = memref.load %arg0[%arg1, %c0] : memref<1x2xi32>\r\n        %6 = memref.load %0[%c0, %c0] : memref<2x2xi32>\r\n        %7 = memref.load %arg0[%arg1, %c1] : memref<1x2xi32>\r\n        %8 = memref.load %0[%c1, %c0] : memref<2x2xi32>\r\n        %9 = memref.load %arg0[%arg1, %c0] : memref<1x2xi32>\r\n        %10 = memref.load %0[%c0, %c1] : memref<2x2xi32>\r\n        %11 = memref.load %arg0[%arg1, %c1] : memref<1x2xi32>\r\n        %12 = memref.load %0[%c1, %c1] : memref<2x2xi32>\r\n        %13 = arith.addi %arg1, %c1_2 : index\r\n        pipeline.register %5, %6, %7, %8, %9, %10, %11, %12, %13 : i32, i32, i32, i32, i32, i32, i32, i32, index\r\n      } : i32, i32, i32, i32, i32, i32, i32, i32, index\r\n      %3:4 = pipeline.while.stage start = 1 {\r\n        %5 = arith.muli %2#0, %2#1 : i32\r\n        %6 = arith.muli %2#2, %2#3 : i32\r\n        %7 = arith.muli %2#4, %2#5 : i32\r\n        %8 = arith.muli %2#6, %2#7 : i32\r\n        pipeline.register %5, %6, %7, %8 : i32, i32, i32, i32\r\n      } : i32, i32, i32, i32\r\n      %4:2 = pipeline.while.stage start = 3 {\r\n        %5 = memref.load %1[%arg1, %c0] : memref<1x2xi32>\r\n        %6 = memref.load %1[%arg1, %c1] : memref<1x2xi32>\r\n        pipeline.register %5, %6 : i32, i32\r\n      } : i32, i32\r\n      pipeline.while.stage start = 4 {\r\n        %5 = arith.addi %4#0, %3#0 : i32\r\n        %6 = arith.addi %5, %3#1 : i32\r\n        memref.store %6, %1[%arg1, %c0] : memref<1x2xi32>\r\n        %7 = arith.addi %4#1, %3#2 : i32\r\n        %8 = arith.addi %7, %3#3 : i32\r\n        memref.store %8, %1[%arg1, %c1] : memref<1x2xi32>\r\n        pipeline.register\r\n      }\r\n      pipeline.terminator iter_args(%2#8), results() : (index) -> ()\r\n    }\r\n    return %1 : memref<1x2xi32>\r\n  }\r\n}\r\n```\r\n\r\nThe only real crucial part is `forwardStoreToLoad`, which is a braindead naive implementation of store-load forwarding (reverse iterate over the loads and find the first matching store). Note this unrolls to a one loop deep loop-nest (under the theory that a loop corresponds to a pipeline). It won't work for many (most?) IR patterns but it will work for MACs (particularly those corresponding to NNs). \r\n\r\nI'm sure I did a lot of things wrong here because I'm a n00b (in particular I couldn't figure out how to run a nested [CSE pass](https://mlir.llvm.org/docs/Passes/#-cse-eliminate-common-sub-expressions) to clean up the constants). Happy to iterate.\r\n\r\nThanks @Groverkss for the tips on speeding up `forwardStoreToLoad`.\r\n\r\n## Addendum\r\n\r\nThe second commit increases the hackiness dramatically but enables lowering an entire [small CNN model](https://github.com/llvm/circt/pull/3967/files#diff-6129b46fe1f5e7bee212945e333d8e889eadd7ea377d235a3f49fef33c16ebe7R72); roughly\r\n\r\n```python\r\nclass ConvPlusReLU(nn.Module):\r\n    def __init__(self, in_channels, out_channels, bias=True):\r\n        super().__init__()\r\n        self.conv1 = torch.nn.Conv2d(in_channels, out_channels, 3, bias=bias)\r\n        self.conv2 = torch.nn.Conv2d(out_channels, in_channels, 3, bias=bias)\r\n        self.relu = torch.nn.ReLU()\r\n\r\n    def forward(self, x):\r\n        x = self.conv1(x)\r\n        x = self.conv2(x)\r\n        x = self.relu(x)\r\n        return x\r\n```\r\n\r\n[Final IR](https://gist.github.com/makslevental/9c43ac387088d5bd030226b866f91e0a).\r\n\r\nThe key hack is the stubbing out of \r\n\r\n```cpp\r\n// auto dependenceAnalysis = getAnalysis<MemoryDependenceAnalysis>();\r\n```\r\n\r\nThe reason for this is that this analysis exactly negates the win of the implementation of `forwardStoreToLoad`, in that it performs exactly the same expensive memory dependence checks that the non-naive `forwardStoreToLoad` [performs](https://github.com/llvm/llvm-project/blob/6d6f6c4d3f40b2d0220fca73b27b8e74e64ba55a/mlir/lib/Dialect/Affine/Utils/Utils.cpp#L877).\r\nIncidentally, from what I can tell, that `dependenceAnalysis` isn't actually being used for anything.\r\n\r\nOf the other two changes, one is a hack and the other is a question of design choice; the reason for\r\n\r\n```mlir\r\n    for (auto *op : group) {\r\n      for (auto *user : op->getUsers()) {\r\n        if (*problem.getStartTime(user) > startTime || isLoopTerminator(user)) {\r\n          opsWithReturns.insert(op);\r\n          stageTypes.append(op->getResultTypes().begin(),\r\n                            op->getResultTypes().end());\r\n+          break;\r\n        }\r\n      }\r\n    }\r\n```\r\n\r\nis that the last layer of the `small_cnn` has a load that's has two users:\r\n\r\n```mlir\r\n      affine.for %arg2 = 0 to 2 {\r\n        ...\r\n            %9 = affine.load %7[%c0, %arg2, %c0, %c0] : memref<1x2x1x1xi32>\r\n            %10 = arith.cmpi ugt, %9, %cst : i32\r\n            %11 = arith.select %10, %9, %cst : i32\r\n            affine.store %11, %8[%arg1, %arg2, %arg3, %arg4] : memref<1x2x1x1xi32>\r\n        ...\r\n      }\r\n```\r\n\r\nThis (without the `break;`) shows up as a `pipeline.register` that registers two values but a `pipeline.while.stage` with four result types: \r\n\r\n```mlir\r\n    %24:5 = \"pipeline.while.stage\"() ({\r\n      %25 = \"memref.load\"(%16, %0, %0, %0, %0) : (memref<1x2x1x1xi32>, index, index, index, index) -> i32\r\n      %26 = \"memref.load\"(%16, %0, %1, %0, %0) : (memref<1x2x1x1xi32>, index, index, index, index) -> i32\r\n      %27 = \"arith.addi\"(%arg1, %23) : (index, index) -> index\r\n      \"pipeline.register\"(%25, %26, %27) : (i32, i32, index) -> ()\r\n    }) {start = 0 : si64} : () -> (i32, i32, i32, i32, index)\r\n```\r\n\r\nI do not know whether the right answer here is to \"register twice\" (once for each user) or have both users read from the same register.\r\n\r\nFinally, the reason for the \r\n\r\n```cpp\r\n//    llvm::sort(group,\r\n//               [&](Operation *a, Operation *b) { return dom.dominates(a, b); });\r\n```\r\n\r\nis that without it I get `null operand`s in various places:\r\n\r\n```mlir\r\n%197 = \"memref.load\"(%arg0, %arg1, %1, <<NULL VALUE>>, %0) :\r\n (memref<1x2x5x5xi32>, index, index, <<NULL TYPE>>, index) -> i32\r\n```\r\n\r\nI'm still debugging this one.",
  "labels": [],
  "state": "open",
  "created_at": "2022-09-21",
  "closed_at": null,
  "code_blocks": [],
  "linked_pr": null,
  "pr_files": null,
  "pr_test_files": null
}
